model.tflite (tflite, 692056 bytes, 8 tensors)

model/sequential/conv2d/Conv2D/ReadVariableOp i1 [1, 7, 7, 128] scale=0.003669075 zero_point=0
00000000: 0007 16f5 06fc f5ff f9f5 fb08 ff0b fdfd
00000010: 0603 02fe 0a09 0206 fdff 01f7 fd04 f2f7
00000020: 0afe 0500 04fc 0208 f906 0109 fafe fc0f
00000030: 0cfa 07fe f501 fb0b fdfe 02f1 07f3 0c03
00000040: 0df9 030d fc00 0003 0702 0004 00ff 0100
00000050: 0409 fc05 fe08 01fd 0d02 0eff 0afb ff00
00000060: fffe 0af6 0803 03ed ff02 0008 0300 fa06
00000070: 0205 f902 0406 f803 0003 f9f7 08ff fa00
00000080: fd01 f9f2 faf7 fefd f9f5 feff fe03 fffe
00000090: fe11 04fc f901 0005 0b07 faf5 0705 f4f9
000000a0: fdf9 0e02 01f2 fc03 0203 ff0a fe01 fa08
000000b0: 03fd 0bfc 02ff fd0f f8fc faf8 fdff 0500
000000c0: fe0a 03ef f307 0403 f50c 00fe 05fa 0101
000000d0: 0204 f9fa 0712 0cf6 0104 0608 17f5 05fe
000000e0: 00fa 0fe4 fe06 02fc 04fa ff0b f7fa 0601
000000f0: 081b 0005 0bf4 f70b 030a 040d 0102 f701
0.0 0.025683524 0.08071965 -0.040359825 0.02201445 -0.0146763 -0.040359825 -0.003669075
-0.025683524 -0.040359825 -0.018345375 0.0293526 -0.003669075 0.040359825 -0.011007225 -0.011007225
0.02201445 0.011007225 0.00733815 -0.00733815 0.03669075 0.033021674 0.00733815 0.02201445
-0.011007225 -0.003669075 0.003669075 -0.033021674 -0.011007225 0.0146763 -0.05136705 -0.033021674
0.03669075 -0.00733815 0.018345375 0.0 0.0146763 -0.0146763 0.00733815 0.0293526
-0.025683524 0.02201445 0.003669075 0.033021674 -0.02201445 -0.00733815 -0.0146763 0.055036124
0.0440289 -0.02201445 0.025683524 -0.00733815 -0.040359825 0.003669075 -0.018345375 0.040359825
-0.011007225 -0.00733815 0.00733815 -0.055036124 0.025683524 -0.047697976 0.0440289 0.011007225
0.047697976 -0.025683524 0.011007225 0.047697976 -0.0146763 0.0 0.0 0.011007225
0.025683524 0.00733815 0.0 0.0146763 0.0 -0.003669075 0.003669075 0.0
0.0146763 0.033021674 -0.0146763 0.018345375 -0.00733815 0.0293526 0.003669075 -0.011007225
0.047697976 0.00733815 0.05136705 -0.003669075 0.03669075 -0.018345375 -0.003669075 0.0
-0.003669075 -0.00733815 0.03669075 -0.03669075 0.0293526 0.011007225 0.011007225 -0.06971242
-0.003669075 0.00733815 0.0 0.0293526 0.011007225 0.0 -0.02201445 0.02201445
0.00733815 0.018345375 -0.025683524 0.00733815 0.0146763 0.02201445 -0.0293526 0.011007225
0.0 0.011007225 -0.025683524 -0.033021674 0.0293526 -0.003669075 -0.02201445 0.0
-0.011007225 0.003669075 -0.025683524 -0.05136705 -0.02201445 -0.033021674 -0.00733815 -0.011007225
-0.025683524 -0.040359825 -0.00733815 -0.003669075 -0.00733815 0.011007225 -0.003669075 -0.00733815
-0.00733815 0.062374275 0.0146763 -0.0146763 -0.025683524 0.003669075 0.0 0.018345375
0.040359825 0.025683524 -0.02201445 -0.040359825 0.025683524 0.018345375 -0.0440289 -0.025683524
-0.011007225 -0.025683524 0.05136705 0.00733815 0.003669075 -0.05136705 -0.0146763 0.011007225
0.00733815 0.011007225 -0.003669075 0.03669075 -0.00733815 0.003669075 -0.02201445 0.0293526
0.011007225 -0.011007225 0.040359825 -0.0146763 0.00733815 -0.003669075 -0.011007225 0.055036124
-0.0293526 -0.0146763 -0.02201445 -0.0293526 -0.011007225 -0.003669075 0.018345375 0.0
-0.00733815 0.03669075 0.011007225 -0.062374275 -0.047697976 0.025683524 0.0146763 0.011007225
-0.040359825 0.0440289 0.0 -0.00733815 0.018345375 -0.02201445 0.003669075 0.003669075
0.00733815 0.0146763 -0.025683524 -0.02201445 0.025683524 0.06604335 0.0440289 -0.03669075
0.003669075 0.0146763 0.02201445 0.0293526 0.084388725 -0.040359825 0.018345375 -0.00733815
0.0 -0.02201445 0.055036124 -0.1027341 -0.00733815 0.02201445 0.00733815 -0.0146763
0.0146763 -0.02201445 -0.003669075 0.040359825 -0.033021674 -0.02201445 0.02201445 0.003669075
0.0293526 0.09906502 0.0 0.018345375 0.040359825 -0.0440289 -0.033021674 0.040359825
0.011007225 0.03669075 0.0146763 0.047697976 0.003669075 0.00733815 -0.033021674 0.003669075

model/sequential/dense/MatMul/ReadVariableOp/transpose i1 [6272, 100] scale=0.004022494 zero_point=0
00000000: e105 f803 1109 f100 faf6 080c fdef ebe7
00000010: 0301 d90c 07fb f508 f7f3 0ce5 d40f 031c
00000020: f619 2fce 0e09 0c04 f7f8 eef5 1024 0010
00000030: 0116 16fd ebcc 10f9 f4ec fe08 07fe f300
00000040: 02ee fb04 e9d0 d41a fa2c 09ef ea0b fd4e
00000050: 01f8 30d6 d4ef ff0a ec16 f906 eb00 fdeb
00000060: 03df f209 0321 fffc de06 f200 fd13 0c0a
00000070: f30c d8f8 1c04 0def d109 20f0 050a 1814
00000080: ea00 3ae3 e9f1 1ff3 090c fffb 2215 42e2
00000090: 0114 fb02 0701 d522 0ee6 0de0 17ef 10d3
000000a0: e5f2 f21a 19e2 e0db f304 ff09 de09 fc0a
000000b0: 250c ef29 fa01 e718 2004 fecf 1c00 3c29
000000c0: e01a ef11 050c ccf2 f509 0a15 ff0e f1fc
000000d0: e3ee feed 0bf4 eae3 10f2 17de f5f7 28f9
000000e0: 0507 f8f8 f30a 1eec e303 09e7 fe09 f810
000000f0: 1418 0602 f2fc 0fff 1a05 e30f e7f1 0603
-0.12469731 0.02011247 -0.03217995 0.012067482 0.0683824 0.036202446 -0.06033741 0.0
-0.024134964 -0.04022494 0.03217995 0.048269928 -0.012067482 -0.0683824 -0.08447237 -0.10056235
0.012067482 0.004022494 -0.15687726 0.048269928 0.028157458 -0.02011247 -0.044247434 0.03217995
-0.036202446 -0.05229242 0.048269928 -0.10860734 -0.17698973 0.06033741 0.012067482 0.11262983
-0.04022494 0.10056235 0.18905722 -0.2011247 0.056314915 0.036202446 0.048269928 0.016089976
-0.036202446 -0.03217995 -0.07240489 -0.044247434 0.0643599 0.14480978 0.0 0.0643599
0.004022494 0.08849487 0.08849487 -0.012067482 -0.08447237 -0.20916969 0.0643599 -0.028157458
-0.048269928 -0.08044988 -0.008044988 0.03217995 0.028157458 -0.008044988 -0.05229242 0.0
0.008044988 -0.07240489 -0.02011247 0.016089976 -0.09251736 -0.19307971 -0.17698973 0.10458484
-0.024134964 0.17698973 0.036202446 -0.0683824 -0.08849487 0.044247434 -0.012067482 0.31375453
0.004022494 -0.03217995 0.19307971 -0.16894475 -0.17698973 -0.0683824 -0.004022494 0.04022494
-0.08044988 0.08849487 -0.028157458 0.024134964 -0.08447237 0.0 -0.012067482 -0.08447237
0.012067482 -0.1327423 -0.056314915 0.036202446 0.012067482 0.1327423 -0.004022494 -0.016089976
-0.1367648 0.024134964 -0.056314915 0.0 -0.012067482 0.076427385 0.048269928 0.04022494
-0.05229242 0.048269928 -0.16089976 -0.03217995 0.11262983 0.016089976 0.05229242 -0.0683824
-0.18905722 0.036202446 0.1287198 -0.0643599 0.02011247 0.04022494 0.096539855 0.08044988
-0.08849487 0.0 0.23330465 -0.116652325 -0.09251736 -0.06033741 0.12469731 -0.05229242
0.036202446 0.048269928 -0.004022494 -0.02011247 0.1367648 0.08447237 0.2654846 -0.12067482
0.004022494 0.08044988 -0.02011247 0.008044988 0.028157458 0.004022494 -0.17296724 0.1367648
0.056314915 -0.10458484 0.05229242 -0.1287198 0.09251736 -0.0683824 0.0643599 -0.18101223
-0.10860734 -0.056314915 -0.056314915 0.10458484 0.10056235 -0.12067482 -0.1287198 -0.14883228
-0.05229242 0.016089976 -0.004022494 0.036202446 -0.1367648 0.036202446 -0.016089976 0.04022494
0.14883228 0.048269928 -0.0683824 0.16492225 -0.024134964 0.004022494 -0.10056235 0.096539855
0.1287198 0.016089976 -0.008044988 -0.1971022 0.11262983 0.0 0.24134964 0.16492225
-0.1287198 0.10458484 -0.0683824 0.0683824 0.02011247 0.048269928 -0.20916969 -0.056314915
-0.044247434 0.036202446 0.04022494 0.08447237 -0.004022494 0.056314915 -0.06033741 -0.016089976
-0.116652325 -0.07240489 -0.008044988 -0.076427385 0.044247434 -0.048269928 -0.08849487 -0.116652325
0.0643599 -0.056314915 0.09251736 -0.1367648 -0.044247434 -0.036202446 0.16089976 -0.028157458
0.02011247 0.028157458 -0.03217995 -0.03217995 -0.05229242 0.04022494 0.12067482 -0.08044988
-0.116652325 0.012067482 0.036202446 -0.10056235 -0.008044988 0.036202446 -0.03217995 0.0643599
0.08044988 0.096539855 0.024134964 0.008044988 -0.056314915 -0.016089976 0.06033741 -0.004022494
0.10458484 0.02011247 -0.116652325 0.06033741 -0.10056235 -0.06033741 0.024134964 0.012067482

model/sequential/dense/MatMul_bias f4 [6272]
00000000: 7110 6a3d 6e9d e53d 963d c4be 71d0 143e
00000010: a2ab 24bd 170b c73d cb5a ee3d 4fc6 913e
00000020: 4728 813e dd0b 833e fcd3 02bd 8dc1 013f
00000030: b8fd 813d f88c 94be b883 6d3e 56f6 903d
00000040: 5eda 443e 71bf b0bd cfa4 42be dbdb 8f3e
00000050: cbde 0d3e 1715 cf3d 638b 293e a066 26bd
00000060: 251d ebbd e764 d6bd ff68 68bd d1ab 943d
00000070: 93e0 813e b209 893d 2bfd a6be d3ac 52be
00000080: 3bf5 af3d ee87 51be f97b 1c3e 6efb b3be
00000090: 25ee 79be 69a5 fe3d 487c b93e 8552 95be
000000a0: b00b 55ba 3f5e 9dbe 7f74 9e3d fcdc 9abe
000000b0: b57d cb3e 90dd 483e 2d60 033e b7c6 80be
000000c0: af3c 51be aaac 4dbe 252d 663e 9d7c 8cbe
000000d0: a61e 67be fdbb a9be d7cb 1c3d f72d 3e3e
000000e0: f72e 6b3e d95f 65be 695a 72bd 8170 923e
000000f0: 2a5e 623c 50e9 513e 6fca 66be 0206 3f3e
00000100: a841 56be a1a5 c0bd fdf3 853e 72a9 4cbc
00000110: 67da 2bbe f53c 45be dd8d 523e 83b4 943e
00000120: 3a3b b4bc 1acb 733e 5a7f 923e c9a0 11bd
00000130: c82b 343e f361 8c3e 7874 6fbe 9974 5f3d
00000140: e5a1 1d3e 4f74 f03d bf95 dd3d 3003 f43d
00000150: a9b2 f83d 9103 5c3c a290 18be 9b5b 2ebe
00000160: b187 0abe f836 153e afa3 4bbe 08ed 8e3e
00000170: 8321 a13e aac6 053e 539b 1a3e ac85 61be
00000180: af87 513e 7f0b 7b3d e611 17be 68b7 39bd
00000190: 687c 003e b536 c43e 1079 55be 4c6e c83e
000001a0: ae0b 06be ca63 333e adf6 09be fb0c 8abe
000001b0: dba0 f73d b13e bbbe 035e f03d 02e2 cc3d
000001c0: 2c1f 403e 0926 94bd b109 353e 4abb ae3e
000001d0: 225d 883e bd43 7bbe 4377 0cbd 78ed ea3e
000001e0: 4ffd 6b3e 7180 27be b4dc 4b3e 2549 c03e
000001f0: 5af3 aabe d25c 953d 5ee9 e33e 52e9 3f3e
00000200: 8fb0 523c 089a f2bd d647 a7be 1be1 79bd
00000210: 054b 013e 6290 323e 8e56 913e 90ec c83d
00000220: 1409 023f 96d2 0a3d 0d0c eabd 3ae9 e73c
00000230: 770b cc3e 9d66 d8be 368d 1c3e 5b76 61bd
00000240: b844 47be 9907 cebe 7207 40be e65a fe3e
00000250: 871a d4bd 04f8 93be e822 253e 4d92 af3d
00000260: e9f5 d8be ce19 8cbe 4611 bd3e 7698 a83d
00000270: 6db5 54bd a57b 38bc c88e d4be 7117 adbe
00000280: 1e8a 2e3e bff9 98be cb63 b73d 1a49 dbbe
00000290: 9408 ffbd 0ee2 9d3e 2a77 6c3e cf74 393e
000002a0: 06f9 4dbe 5f17 e9be 3a45 e1bd 9a3f 9fbe
000002b0: 29da 223e f9bd 9c3e bcb3 193e a9b1 eabe
000002c0: 1b8a 9abe 21b5 a5be 0454 14be 579e 9dbe
000002d0: e3a9 c8be 7b19 91be c97f 76be 4ec5 10be
000002e0: 925d c13d cc85 7c3c 2def 9c3d d991 3bbd
000002f0: 2e9c 413e dd1b a73e 8489 a0be 33b3 49bd
00000300: 5d24 0ebe a391 bfbe ef3d 033d d932 18be
00000310: 1a06 58bd f4f4 adbe 566d 3a3d d530 9f3e
00000320: d590 b33c cd56 9e3d 6faf 7fbd 8d1b e23d
00000330: c7b8 e6be b79c 02be 9bd8 a4be fe74 e4bb
00000340: 2908 51be 286f 9ebe d124 123f 0b35 4a3e
00000350: 284b 933d 51dc debe 703c 62be b7f7 2abe
00000360: f12c e9bd 9462 c6bd db67 0f3c fec3 883d
00000370: 70cc 16be cb78 cf3e 7d17 debd 27ef 2bbe
00000380: c934 813d 472b 3dbd b048 dbbe 5370 8ebe
00000390: a431 9c3e 076d d43e 4b86 2fbe 2a2f 533e
000003a0: 82eb 69be 3f48 fc3d 7104 38be 5db4 6bbe
000003b0: 27bd 153e 4cd1 b0be 483e de3c 3d46 3dbc
000003c0: 85fd 81bc 3590 fdbe 8090 763e a129 9bbc
000003d0: 0b1e b5bd cef1 44bd e7bb 3cbd 1454 4abb
000003e0: 1fbc b43e e200 92be a724 f03d 25ca 103e
000003f0: 70b4 d6be 4c97 63be 211b 093e 5317 8a3e
0.057144586 0.11211668 -0.38328236 0.14532639 -0.040202744 0.09718912 0.11638411 0.2847161
0.25226042 0.25594988 -0.031940445 0.5068596 0.06347221 -0.290138 0.23194778 0.07078235
0.19223925 -0.086302646 -0.19008182 0.28097424 0.1385452 0.101114444 0.16557078 -0.040625215
-0.11480168 -0.10468464 -0.056740757 0.07259334 0.2536665 0.06691302 -0.32615027 -0.2057374
0.08591696 -0.2046201 0.15281667 -0.35152763 -0.24407251 0.12433893 0.36227632 -0.2916452
-0.0008127047 -0.30735967 0.077370636 -0.30246723 0.39744344 0.1961577 0.12829657 -0.25151607
-0.20433305 -0.20085397 0.22478159 -0.27438822 -0.22570285 -0.33151236 0.038280334 0.18572222
0.22967134 -0.22399844 -0.059168253 0.2860146 0.013816396 0.20499158 -0.2253816 0.18654636
-0.20923483 -0.09406591 0.2616271 -0.012491571 -0.16782533 -0.19261535 0.20561929 0.2904397
-0.022000898 0.23807946 0.28612787 -0.035553727 0.17594826 0.2741848 -0.23384273 0.054554556
0.15393789 0.11740934 0.108195774 0.119146705 0.12143452 0.013428585 -0.14898923 -0.17027132
-0.13528325 0.1457175 -0.19886659 0.27915215 0.3147088 0.13064066 0.15098314 -0.22023648
0.20461915 0.06129026 -0.14752921 -0.045340925 0.12547457 0.38322988 -0.20846963 0.3914665
-0.13090393 0.17518535 -0.13473006 -0.26963028 0.120912276 -0.36571267 0.11736681 0.10004045
0.18761891 -0.07233817 0.17679478 0.34127265 0.26633555 -0.24537559 -0.034293424 0.458843
0.23045848 -0.1635759 0.1990841 0.37555805 -0.33388788 0.07293095 0.44513983 0.18741348
0.012859478 -0.118457854 -0.32671994 -0.061005693 0.12626274 0.1743789 0.28386348 0.09810746
0.507951 0.033892237 -0.1142808 0.028309453 0.39852497 -0.42265788 0.15288243 -0.055044513
-0.19459808 -0.40240172 -0.1875284 0.49678725 -0.10356622 -0.28900158 0.16126597 0.085728265
-0.42375115 -0.27363437 0.3692724 0.082322046 -0.051930834 -0.011259948 -0.41515183 -0.33806947
0.17044875 -0.2987804 0.08954581 -0.4282921 -0.12452808 0.3083653 0.23092332 0.18110965
-0.20114526 -0.45525643 -0.10999532 -0.31103212 0.15903534 0.30613688 0.1500997 -0.4583867
-0.3018349 -0.32364753 -0.14485174 -0.30784866 -0.39192113 -0.28339753 -0.24072184 -0.14137766
0.09441675 0.015412759 0.07662807 -0.045793388 0.18907234 0.32638445 -0.31354916 -0.049243163
-0.13881059 -0.374158 0.032041486 -0.14863147 -0.052740194 -0.33975947 0.045514427 0.31091943
0.021919647 0.077314 -0.062423166 0.11040411 -0.4506285 -0.12755094 -0.32196507 -0.0069719544
-0.20413269 -0.3094418 0.5708743 0.19746797 0.07192069 -0.43527463 -0.22093368 -0.16696058
-0.11385525 -0.09686771 0.008752788 0.066780075 -0.14726424 0.40521845 -0.10844324 -0.16790448
0.06308896 -0.04618385 -0.42828894 -0.27820072 0.30506623 0.4148943 -0.17141072 0.2062346
-0.22843745 0.12318467 -0.17970444 -0.23018022 0.14622937 -0.3453468 0.027129307 -0.011552391
-0.015867958 -0.49524084 0.2407856 -0.018940749 -0.08843621 -0.048082165 -0.046077635 -0.0030872868
0.35299775 -0.285163 0.11725741 0.14139612 -0.41934538 -0.22225684 0.13389255 0.2697092

model/sequential_1/conv2d_1/Conv2D/ReadVariableOp f4 [1, 3, 3, 32]
00000000: a039 b3bd 3514 f1bd 6262 03be c0ad f93d
00000010: bb9a 40bc 3b65 d33d 581e 27be bf49 d43c
00000020: 7cb2 ccbd 39ed 11bd bade 36be c4f4 1cbe
00000030: 6b3a 813d df7c ab3c 356f bdbc 90bf 07be
00000040: 14fe 03bd 3a98 a03e b809 133c 74ea 383d
00000050: 1c0b 943d ea47 babc 450f a03e 495d 003e
00000060: 8464 c53d 4eb3 28be 5281 49bd 4d4f 7cbd
00000070: 8ad6 313e a18d 83be 5c25 003e d06d d23c
00000080: e87f 3dbe dfd6 563e 5d12 2bbe c24d 7c3e
00000090: 3f48 7e3d e269 ccbd eb46 1e3e a9cc 87bc
000000a0: 77c8 b5bb ca9c bf3d b7a0 743e af4d 4dbd
000000b0: 9cfe fc3d ddab 33bd 4c7e d0bc 6d91 063d
000000c0: d87c 44be 63e9 fe3d 67f0 533e 547f 0a3e
000000d0: 4354 21be 2828 aa3d 1d06 a0be 03a5 463e
000000e0: 62ad 1a3e a288 123e e81c 673d 6346 3dbd
000000f0: ffe2 68be ae94 8d3e e2f9 003d dcd9 453d
00000100: 0c21 ad3c eacc e23d 3fb3 1ebd ee3e 93be
00000110: f88e 8bbd b394 b63d e332 e73c 1855 0b3d
00000120: cfd8 22be 2036 d2bc 3b6a a33d 2622 b2bd
00000130: fd40 183e 7c5f 56be 184c 7e3e 4c0c 863c
00000140: 6f02 333e ef76 65be b4c9 70be 3698 083e
00000150: 09db 173d 7ca7 38bd b925 de3b 975b 583e
00000160: 0a55 573e b231 c0bc 7ee4 833d d080 773e
00000170: e06e a23c d968 223e 36ad f2bd 9a85 933c
00000180: 18c9 ca3e 0944 21bc d4d2 073e b6bc 50bd
00000190: f3b1 a3be 6045 163d e523 86bc 593d b73d
000001a0: a63f 573e f8eb fb3d 6533 52be b32d 103e
000001b0: 4f0e cf3d e45f ee3c 1808 80be b619 933c
000001c0: d7a9 e03d 6e1c 19bd a1ad 663c 7fdc f2bd
000001d0: 4da8 fabd 98d9 5d3e 2d26 013d 4274 d03d
000001e0: 5788 d9bd f401 223e 3d5c a33c 4ddd 673b
000001f0: cc5e 543c 14d9 243e ceca 493e c1fb 15be
00000200: 6494 6d3e b83a 6dbd 487d a33d 3845 a2bd
00000210: d02f 9a3d 1ba4 f3bd dc84 403e 7a58 82bd
00000220: 189c 583c 121e 2e3d ca62 ad3d aafa 503e
00000230: 1684 063e 2d55 b2bc 7057 10be 78c3 243e
00000240: 1ee9 e5bd 7b58 83be 8c34 923d 2776 d23d
00000250: 0b11 393e 9a3d b3be 8966 91bd dd97 56bd
00000260: 0b61 42be dcfb bdbe 69ef 973d f0f4 c5be
00000270: d7d0 22be c5b9 12be 34e3 933e 48a9 adbe
00000280: 68e5 823b aa42 233e 54ba a13c 2e24 fb3d
00000290: 9bd2 183d 1bf8 253d 8bbb f03d 64a9 653c
000002a0: 7662 8b3e 4e4b 033d 6fd9 ad3d 3d6e cfbd
000002b0: b1d7 8cbd 61a3 283e cf4d 5d3e 42b9 1d3e
000002c0: f4ba 473e 5fa2 e0ba 978b 013e 0a7d 093d
000002d0: 8efd 9f39 c972 a73e 9297 82be 7e93 033e
000002e0: 2703 55bd 4daa 7e3e e537 57bc 54fc 173d
000002f0: 52de 333d eb11 d1bd d3f8 39be 4531 313e
00000300: 271f a3be f100 14be 066a 9a3e b624 263d
00000310: 4c70 3b3e 3263 06be e6eb 0f3e 947d a1be
00000320: 553b 5cbe 5a78 713e 09ad db3b afeb e43d
00000330: ac3b 843d 24b4 a4be f7ab 863e fea3 33be
00000340: 5f18 35be a836 1f3e 47af 823d f485 7cbe
00000350: 0ef5 2ebe 6984 ac3d a959 d9bc abec f93c
00000360: f6fa 1fbe e96e 243d d636 bf3e 4f59 09bd
00000370: b492 533e c1b5 c23d 74f6 48be 1606 3e3e
00000380: 06c6 75bd 56af 6ebe 82cb 91bd a5d3 24be
00000390: 601c d53d 1c8e f7bd 395d dabc a263 8f3e
000003a0: 728b 0d3d 4aab c8be b956 9fbd 8e1d 603d
000003b0: 1fbc e1bd d53c 993e 3651 d73c 7c9b 3cbe
000003c0: 163b 4dbd f4a5 d83d c9bf c6bd a00e 6ebe
000003d0: b80e 213e 67d5 54bc d717 283d b4fa 6abd
000003e0: 97cb 643c 8f4b cd3c 1a93 fcbe 997d 473e
000003f0: 0598 78be a907 febc f519 85bd 49a0 95bd
-0.087512255 -0.11771432 -0.12830499 0.12191343 -0.011755641 0.103220426 -0.16320169 0.025914071
-0.09994981 -0.035626624 -0.17858401 -0.15327746 0.063099705 0.020933567 -0.023124317 -0.13256669
-0.03222473 0.3136614 0.008974485 0.045145467 0.072286814 -0.02273937 0.3126165 0.12535585
0.096383125 -0.1647465 -0.049195595 -0.061599065 0.17366996 -0.25693992 0.12514251 0.025687128
-0.18505824 0.20980404 -0.16706224 0.24639037 0.062080618 -0.09981133 0.1545674 -0.016577082
-0.005547579 0.09356077 0.23889433 -0.050122913 0.123532504 -0.043865073 -0.025450848 0.032853533
-0.19188249 0.12446859 0.20697175 0.13525134 -0.157548 0.083084404 -0.31254664 0.19398884
0.15105203 0.14309934 0.05642405 -0.046209704 -0.22742842 0.27652496 0.031488307 0.04830347
0.021133922 0.110742405 -0.03874516 -0.2875895 -0.068143785 0.08915081 0.028222507 0.0340167
-0.15903018 -0.025660574 0.07979246 -0.086979195 0.14868541 -0.20934862 0.24833715 0.016363285
0.17481397 -0.22408651 -0.23514444 0.13339314 0.037074123 -0.0450816 0.0067793992 0.21128689
0.21028534 -0.023461197 0.06440066 0.24170232 0.01982826 0.15860309 -0.118494436 0.018008042
0.39606547 -0.009842881 0.13264018 -0.05096122 -0.31971702 0.036687255 -0.016374538 0.08947248
0.21020374 0.12300867 -0.20527418 0.14079933 0.10110151 0.029098459 -0.25006175 0.017956596
0.109698944 -0.03738063 0.014079482 -0.118584625 -0.12239132 0.21665037 0.031530548 0.101784244
-0.10621708 0.15821058 0.019941444 0.0035379708 0.012962054 0.16098434 0.1970627 -0.14646818
0.23201138 -0.057917327 0.0798288 -0.07923359 0.07528651 -0.11896535 0.18800682 -0.06364532
0.013220809 0.042509146 0.08466108 0.20408121 0.13136324 -0.02176913 -0.14095855 0.1609019
-0.11226104 -0.25653443 0.07138929 0.10276442 0.18072908 -0.35007936 -0.07099635 -0.05239092
-0.18982331 -0.37106216 0.07418711 -0.38663435 -0.15899979 -0.14328678 0.2888428 -0.33918214
0.0039946325 0.15943399 0.019742168 0.1226276 0.037310224 0.040519815 0.11754521 0.014017437
0.27223557 0.032054238 0.08488738 -0.10128448 -0.06877077 0.16468574 0.21611713 0.15402701
0.1950491 -0.0017138234 0.12650906 0.033566512 0.00030515756 0.32704762 -0.25506264 0.12849233
-0.05200496 0.24869652 -0.013135885 0.037105873 0.043913193 -0.10208496 -0.18161325 0.17303951
-0.31859705 -0.14453484 0.30159014 0.040562354 0.18304557 -0.13123778 0.14054832 -0.3154112
-0.21507008 0.23581067 0.006703977 0.111777656 0.06456694 -0.32168686 0.26303074 -0.17543027
-0.17685078 0.15548193 0.06381088 -0.24660474 -0.17085668 0.08423693 -0.026532011 0.03050836
-0.15623078 0.040144835 0.37346524 -0.033532437 0.20661432 0.09507323 -0.19625264 0.18557009
-0.060003303 -0.23309073 -0.07118894 -0.16096361 0.10405803 -0.12087652 -0.02665578 0.280057
0.034556814 -0.39193183 -0.07780213 0.054715686 -0.110222094 0.29929224 0.026283842 -0.18418688
-0.050105177 0.10578528 -0.09704549 -0.23247766 0.15728271 -0.012990332 0.04103836 -0.057367995
0.013964555 0.025060443 -0.4933098 0.19481505 -0.24276741 -0.031009512 -0.064990915 -0.073059626

model/sequential_1/conv2d_1/Conv2D_bias f4 [32]
00000000: f884 95bd af7f 0abe c49e 2cbe 5cb5 16be
00000010: 05cd d2bd 226a 20be bb5f 65be e409 8abd
00000020: 8e4c ffbd 852e 1abe e2ae f7bd 68c3 2abe
00000030: e145 19be 3f32 56bd 04f9 44be e8b8 02be
00000040: 44eb 37be 561d 82be 40e1 69be 23d7 4cbe
00000050: e1ff 46be fcac cbbd d65b c3bd 21d3 8dbe
00000060: beab 96bd da06 aabd a0e8 30be 76a0 64be
00000070: 3d1d e4bc bf13 53be d8b3 41be e470 ecbd
-0.073007524 -0.1352527 -0.1685744 -0.1471762 -0.102930106 -0.15665486 -0.223998 -0.06740168
-0.124657735 -0.15056808 -0.12093903 -0.16676104 -0.14968063 -0.052294012 -0.19235617 -0.12765849
-0.1796084 -0.25413007 -0.22839832 -0.20003943 -0.19433548 -0.099451035 -0.09539001 -0.2770014
-0.07356976 -0.08302088 -0.1727624 -0.22326836 -0.027845973 -0.20613001 -0.18916261 -0.1154497

model/sequential_1/conv2d_2/Conv2D/ReadVariableOp i1 [32, 3, 3, 32] scale=0.0098999115 zero_point=0
00000000: 16f1 09ec 0ed4 fff0 2afe d0fa f4ff daf1
00000010: c9e8 edf0 f90a 14f8 e3f3 e9f5 dcbe 0ee5
00000020: 19fb 05c3 15c1 04e4 1e15 eeff f205 f808
00000030: c4dd ebee ef07 00ee ca02 0f01 d0e4 0ce5
00000040: 2509 09bc 0fbe 02fb 0b0d 05f6 0413 0108
00000050: f7b2 020e df06 0303 0313 0a03 d012 f4f6
00000060: 07ff 18f9 1dff 0609 04f0 fd0a 04f0 ecff
00000070: bccc f309 e101 fc01 0ff8 f1e8 b10b 02f2
00000080: 0708 0cf6 3201 fcfc 0200 fe04 04fc ec02
00000090: c7e4 0205 cf03 fdfa 0afd fed9 ac13 fcf5
000000a0: 050d 0bfd 2cff f4f8 f904 04f4 0b1c e804
000000b0: e8ef 0502 f009 1206 0ce8 fefa ca10 f9d6
000000c0: 0f05 0502 da0b faf7 0afb 0217 08e9 e403
000000d0: dcef fa0b c100 fa00 09fd f90f bffe 04f7
000000e0: 0606 ca03 0805 f600 ff08 f9d7 fef9 f6f6
000000f0: f0ec 0506 f204 0eff 05e9 fe1f def0 04f6
0.21779805 -0.14849867 0.089099206 -0.19799823 0.13859876 -0.4355961 -0.0098999115 -0.15839858
0.41579628 -0.019799823 -0.47519577 -0.05939947 -0.11879894 -0.0098999115 -0.37619662 -0.14849867
-0.5444951 -0.23759788 -0.18809831 -0.15839858 -0.06929938 0.09899911 0.19799823 -0.07919929
-0.28709742 -0.12869886 -0.22769797 -0.10889903 -0.35639682 -0.65339416 0.13859876 -0.2672976
0.24749778 -0.049499556 0.049499556 -0.6038946 0.20789814 -0.6236944 0.039599646 -0.2771975
0.29699734 0.20789814 -0.17819841 -0.0098999115 -0.13859876 0.049499556 -0.07919929 0.07919929
-0.5939947 -0.3464969 -0.20789814 -0.17819841 -0.1682985 0.06929938 0.0 -0.17819841
-0.5345952 0.019799823 0.14849867 0.0098999115 -0.47519577 -0.2771975 0.11879894 -0.2672976
0.36629674 0.089099206 0.089099206 -0.673194 0.14849867 -0.65339416 0.019799823 -0.049499556
0.10889903 0.12869886 0.049499556 -0.09899911 0.039599646 0.18809831 0.0098999115 0.07919929
-0.089099206 -0.7721931 0.019799823 0.13859876 -0.32669708 0.05939947 0.029699735 0.029699735
0.029699735 0.18809831 0.09899911 0.029699735 -0.47519577 0.17819841 -0.11879894 -0.09899911
0.06929938 -0.0098999115 0.23759788 -0.06929938 0.28709742 -0.0098999115 0.05939947 0.089099206
0.039599646 -0.15839858 -0.029699735 0.09899911 0.039599646 -0.15839858 -0.19799823 -0.0098999115
-0.673194 -0.5147954 -0.12869886 0.089099206 -0.30689725 0.0098999115 -0.039599646 0.0098999115
0.14849867 -0.07919929 -0.14849867 -0.23759788 -0.782093 0.10889903 0.019799823 -0.13859876
0.06929938 0.07919929 0.11879894 -0.09899911 0.49499556 0.0098999115 -0.039599646 -0.039599646
0.019799823 0.0 -0.019799823 0.039599646 0.039599646 -0.039599646 -0.19799823 0.019799823
-0.56429493 -0.2771975 0.019799823 0.049499556 -0.48509565 0.029699735 -0.029699735 -0.05939947
0.09899911 -0.029699735 -0.019799823 -0.38609654 -0.83159256 0.18809831 -0.039599646 -0.10889903
0.049499556 0.12869886 0.10889903 -0.029699735 0.4355961 -0.0098999115 -0.11879894 -0.07919929
-0.06929938 0.039599646 0.039599646 -0.11879894 0.10889903 0.2771975 -0.23759788 0.039599646
-0.23759788 -0.1682985 0.049499556 0.019799823 -0.15839858 0.089099206 0.17819841 0.05939947
0.11879894 -0.23759788 -0.019799823 -0.05939947 -0.5345952 0.15839858 -0.06929938 -0.41579628
0.14849867 0.049499556 0.049499556 0.019799823 -0.37619662 0.10889903 -0.05939947 -0.089099206
0.09899911 -0.049499556 0.019799823 0.22769797 0.07919929 -0.22769797 -0.2771975 0.029699735
-0.35639682 -0.1682985 -0.05939947 0.10889903 -0.6236944 0.0 -0.05939947 0.0
0.089099206 -0.029699735 -0.06929938 0.14849867 -0.64349425 -0.019799823 0.039599646 -0.089099206
0.05939947 0.05939947 -0.5345952 0.029699735 0.07919929 0.049499556 -0.09899911 0.0
-0.0098999115 0.07919929 -0.06929938 -0.40589637 -0.019799823 -0.06929938 -0.09899911 -0.09899911
-0.15839858 -0.19799823 0.049499556 0.05939947 -0.13859876 0.039599646 0.13859876 -0.0098999115
0.049499556 -0.22769797 -0.019799823 0.30689725 -0.336597 -0.15839858 0.039599646 -0.09899911

model/sequential_1/conv2d_2/Conv2D_bias f4 [32]
00000000: 9de3 3abe 3552 c93d 7e96 3f3e 7fe4 df3c
00000010: 9d16 983d 1d5d e13d 65e0 5e3e 3296 65be
00000020: 7b7c d03d 66a4 053e db78 323e 9490 0abe
00000030: 5172 efbd 2a05 94bd 8373 29be 9ed2 a03d
00000040: bed4 b43d aafd 033e 2e7c 4cbd b83a 04be
00000050: 96c5 3b3c 66e4 263d 30da d1bd dbd4 a2bd
00000060: f4c7 863e 3c95 d4bd 95bc d03c 8ef0 31be
00000070: bfba 243e be3a 82bd 7c2e 4dbb c3e4 1dbe
-0.1825089 0.09830133 0.18709752 0.027330635 0.07426188 0.11004088 0.21765287 -0.22420576
0.10179993 0.13050994 0.17428915 -0.13531715 -0.11691726 -0.072275475 -0.1654797 0.07852672
0.0882964 0.12889734 -0.049923114 -0.12913024 0.011460682 0.04074516 -0.10246694 -0.07950755
0.26324427 -0.10380027 0.025480548 -0.1737692 0.16086863 -0.063588604 -0.0031308224 -0.15419297

model/sequential_1/dense_1/MatMul/ReadVariableOp/transpose i1 [1, 18432] scale=0.005548528 zero_point=0
00000000: f614 0102 070d 23f5 060b 0be3 fc00 e90f
00000010: 1715 04f8 0821 fbec 000c 12e7 0cf3 01fa
00000020: fb0c 0607 040b 1aed 011a 20e8 f4fe e61d
00000030: 2d1e 0af1 0a02 03f2 0f00 08ea e9e9 05f6
00000040: ee26 0e0c 03f7 03db 1004 18ea fefc e00c
00000050: 140e 0a00 0111 05f8 2c02 fbf1 06ed 03fd
00000060: f412 0ff9 0cfb f9e0 fd10 08f3 01f8 f7fe
00000070: 10fb 08e1 f709 fe0b 2308 0af4 14f7 fdfd
00000080: fce4 0fe2 fa13 0ffb f60e 1ffc eff6 e709
00000090: 12ff 02d3 fd0b ff0f 2107 efe2 0d0e 0202
000000a0: fbf7 0004 ff1d ff04 ec2c 24e2 f302 08fe
000000b0: 070d f8e9 0f02 0706 ff0a f5ec e203 f905
000000c0: 04de f8df 0c03 fc0b 0013 3009 f6f6 1909
000000d0: f10c 19e0 0f17 0d18 01fd f6fd fc1e 0402
000000e0: 01ce 04f1 fd02 ff12 ef09 14e7 e005 1005
000000f0: e514 25e6 2700 1a0e 05f1 f7f3 0902 f9fe
-0.05548528 0.11097056 0.005548528 0.011097056 0.038839694 0.07213087 0.19419847 -0.061033808
0.03329117 0.061033808 0.061033808 -0.16090731 -0.022194112 0.0 -0.12761614 0.08322792
0.12761614 0.116519086 0.022194112 -0.044388223 0.044388223 0.18310142 -0.02774264 -0.11097056
0.0 0.06658234 0.099873506 -0.1387132 0.06658234 -0.07213087 0.005548528 -0.03329117
-0.02774264 0.06658234 0.03329117 0.038839694 0.022194112 0.061033808 0.14426173 -0.10542203
0.005548528 0.14426173 0.1775529 -0.13316467 -0.06658234 -0.011097056 -0.14426173 0.16090731
0.24968375 0.16645584 0.05548528 -0.08322792 0.05548528 0.011097056 0.016645584 -0.07767939
0.08322792 0.0 0.044388223 -0.122067615 -0.12761614 -0.12761614 0.02774264 -0.05548528
-0.099873506 0.21084405 0.07767939 0.06658234 0.016645584 -0.049936753 0.016645584 -0.20529553
0.08877645 0.022194112 0.13316467 -0.122067615 -0.011097056 -0.022194112 -0.1775529 0.06658234
0.11097056 0.07767939 0.05548528 0.0 0.005548528 0.094324976 0.02774264 -0.044388223
0.24413523 0.011097056 -0.02774264 -0.08322792 0.03329117 -0.10542203 0.016645584 -0.016645584
-0.06658234 0.099873506 0.08322792 -0.038839694 0.06658234 -0.02774264 -0.038839694 -0.1775529
-0.016645584 0.08877645 0.044388223 -0.07213087 0.005548528 -0.044388223 -0.049936753 -0.011097056
0.08877645 -0.02774264 0.044388223 -0.17200437 -0.049936753 0.049936753 -0.011097056 0.061033808
0.19419847 0.044388223 0.05548528 -0.06658234 0.11097056 -0.049936753 -0.016645584 -0.016645584
-0.022194112 -0.15535878 0.08322792 -0.16645584 -0.03329117 0.10542203 0.08322792 -0.02774264
-0.05548528 0.07767939 0.17200437 -0.022194112 -0.094324976 -0.05548528 -0.1387132 0.049936753
0.099873506 -0.005548528 0.011097056 -0.24968375 -0.016645584 0.061033808 -0.005548528 0.08322792
0.18310142 0.038839694 -0.094324976 -0.16645584 0.07213087 0.07767939 0.011097056 0.011097056
-0.02774264 -0.049936753 0.0 0.022194112 -0.005548528 0.16090731 -0.005548528 0.022194112
-0.11097056 0.24413523 0.19974701 -0.16645584 -0.07213087 0.011097056 0.044388223 -0.011097056
0.038839694 0.07213087 -0.044388223 -0.12761614 0.08322792 0.011097056 0.038839694 0.03329117
-0.005548528 0.05548528 -0.061033808 -0.11097056 -0.16645584 0.016645584 -0.038839694 0.02774264
0.022194112 -0.18864995 -0.044388223 -0.18310142 0.06658234 0.016645584 -0.022194112 0.061033808
0.0 0.10542203 0.26632935 0.049936753 -0.05548528 -0.05548528 0.1387132 0.049936753
-0.08322792 0.06658234 0.1387132 -0.1775529 0.08322792 0.12761614 0.07213087 0.13316467
0.005548528 -0.016645584 -0.05548528 -0.016645584 -0.022194112 0.16645584 0.022194112 0.011097056
0.005548528 -0.2774264 0.022194112 -0.08322792 -0.016645584 0.011097056 -0.005548528 0.099873506
-0.094324976 0.049936753 0.11097056 -0.1387132 -0.1775529 0.02774264 0.08877645 0.02774264
-0.14981025 0.11097056 0.20529553 -0.14426173 0.21639259 0.0 0.14426173 0.07767939
0.02774264 -0.08322792 -0.049936753 -0.07213087 0.049936753 0.011097056 -0.038839694 -0.011097056
